HW5/cnn.pt (torch, 85935 bytes, 7 tensors)

conv1.weight f4 [10, 1, 5, 5]
00000000: 1365 4fbc 4c21 9f3d 6f64 0a3d 8cc8 f3bd
00000010: 5e6e 21be 2b18 2cbe 62c9 f03d d0a5 4b3d
00000020: 9a7d fdbd 0aa6 113d 8eaa 2dbe ad88 9c3d
00000030: 5a3e f9bc 09b0 1cbd 630b 143e 1c9f cb3d
00000040: 9880 32be 6ea2 29be 732e d33d 4977 73bd
00000050: 0522 bf3d 9a26 a53d 6acb 80bd 9b08 493d
00000060: 3d40 6f3d baf1 463e 6815 1fbe d6d2 3d3e
00000070: 66a0 4d3e 9bf6 80bd 8c2a 3b3e 9e4b 17bd
00000080: 04c5 fbbd bf1e d2bd 9b01 85bd c199 94bd
00000090: a3bf 8c3d 4bff 473e e7c2 323d 0c0b 0fbd
000000a0: ad6a ef3d cfe5 2ebe cf70 1e3d a90c b33d
000000b0: 5c8f 2cbe e04e 4abe 4b95 25be f72a 05be
000000c0: da88 65bd 22a4 2b3e 38ea e3bd ab06 21be
000000d0: ce2e 4ebe 1790 b6bd fd5d b6bc fbac c73b
000000e0: ece0 363e 60c6 0ebc ccd0 073d a37f edbd
000000f0: 593c d43d 12bb 8dbd 8509 14be 6742 7dbc
00000100: 8c2b 85bd 787b 073e 4eb2 753c d480 3a3e
00000110: 6a5d 2f3e 240a 60bd bdcd 213e 0035 643e
00000120: de24 783e e90c c83d 5bf2 25bd a770 353e
00000130: 1c72 10bc 5531 b63d 840c 4cbe 933a 16be
00000140: f817 993d c5b4 f2bd 9fcf 6f3d fe25 083d
00000150: 4289 77bd 8fee 3f3e 74b4 193e 782d 363e
00000160: b081 5d3d f3bf e53b 4e6b eebd 7220 91bd
00000170: e33e 69bd f8ef b6bc 9249 243e fdd7 2cbe
00000180: 02c8 07be 796d d43d a0ea 35be fe39 163d
00000190: 8819 1ebe de1d b8bd 24c9 0b3e 8d03 09be
000001a0: b35c d93c 1431 48be f1e2 143e 0c87 ccbd
000001b0: 6640 22ba 0afc d7bd 7892 11bd 8a9d 0bbe
000001c0: 9fd5 393e e7e1 bebd 3188 a63d dea1 383e
000001d0: 803c 4b3d 4192 20be ee46 b23d becd 16be
000001e0: 6583 94bc 9f6a 183e 845e 4abc a281 d13d
000001f0: 00fd 203e e540 b33c 17a4 163e b48a 9dbc
00000200: c886 5ebd 0385 633e c340 10be a718 2b3d
00000210: cf1b ad3d 2073 5abd a225 ac3d 853e 70bd
00000220: aa73 abbd fa6b 5f3d dade 4dbe facc 64be
00000230: 943c 8fbe 8903 58be 5371 ddbd 8c37 e9bd
00000240: 569f 3abe fda4 993d c12c 25bd 0301 00be
00000250: 2b9e 36be e977 42be 32e5 ae3d c18d 463e
00000260: 8a1b 953d b0e0 47be c257 e13d 547c 55bd
00000270: 1d2e c5bd 30d0 95bd 1735 3cbe ea2a b33d
00000280: f021 83bd 003f 8aba aa88 a73d ec8a 153d
00000290: a417 7c3d a0f0 3ebd 63ba f3bd 401a dc3b
000002a0: 8024 6abd 6014 de3b 8bd8 49be c239 0cbe
000002b0: 926d dd3d 1dc8 3ebe f854 12be 8af9 7b3e
000002c0: dbad 773e 40ed 0d3e ab87 263e 957f c33d
000002d0: 64d8 f53d 8b24 c53b 2ac1 73bd f884 0a3e
000002e0: b7aa 2abd aaa1 193e a4ac 25bd 1d55 253e
000002f0: 16d4 273e 810a ffbc 3967 cbbc 9d0c 1d3e
00000300: 20ce 8fbc 4696 633e 94a5 0f3d c6c1 03be
00000310: 7d15 bdbc c2ac 1ebd 469c 303e abb7 bb3d
00000320: 113c 063e fac6 95bd 12a8 bc3d 8f67 2ebe
00000330: f4d2 203d 99d5 3f3e 5c8c 723d 9a36 c0bd
00000340: 4ad8 f9bd 693f 433e 259b 36be 6c84 15bd
00000350: a2b4 ca3d 1c1c 793d 6044 2dbe d5e3 2fbe
00000360: 8043 10bd 6548 38be a8f5 fcbc 1d2c 0dbe
00000370: 7231 ee3d 721d 8e3d 800c cebc 528e b73d
00000380: ac1d 7d3d 8c2e 2c3e 3279 c43d d754 573e
00000390: 27a7 06be d4b5 173e 2f35 d33d 4b72 71bd
000003a0: f366 32bd 968b 543e 135f 5e3c afbd 71bd
000003b0: 4590 32be 5c13 d9bd 26d8 e43d 4d7b c83d
000003c0: cc40 673c 992a 79bd f259 93bc 1c05 a6bd
000003d0: 3450 ffbd 94ac c0bd 449c 6fbe efbb f4bd
000003e0: f92b 90be 9fb9 75be
-0.012658375 0.07770023 0.033787187 -0.11903486 -0.15764758 -0.16806094 0.11757161 0.049718678
-0.12377472 0.035558738 -0.16959593 0.07643256 -0.03042524 -0.038253818 0.14457469 0.09942457
-0.17431867 -0.16565868 0.10311594 -0.05943993 0.093326606 0.08064003 -0.06288798 0.049080472
0.05841087 0.19428149 -0.1553551 0.18537459 0.20080718 -0.06297036 0.18277949 -0.03693735
-0.12293437 -0.102597706 -0.06494447 -0.07255889 0.06872489 0.1953098 0.043642905 -0.034922644
0.11690269 -0.17079853 0.0386818 0.08742649 -0.16851562 -0.19756651 -0.16170232 -0.13004671
-0.056038715 0.1676183 -0.11128658 -0.157252 -0.20135042 -0.08914202 -0.022261614 0.006093619
0.17859238 -0.0087142885 0.03315811 -0.115966104 0.10363073 -0.069204465 -0.14456756 -0.015457726
-0.065024465 0.13230693 0.014996124 0.18213207 0.17125478 -0.05469717 0.15801139 0.22285843
0.24232814 0.097680874 -0.04051433 0.17718755 -0.008816268 0.08896128 -0.1992665 -0.14670782
0.07475275 -0.11850885 0.058547612 0.033239357 -0.060433634 0.18743347 0.15010244 0.17790782
0.054078758 0.0070114075 -0.116415605 -0.070862666 -0.05694474 -0.022331223 0.1604369 -0.16879268
-0.1325989 0.10372443 -0.17765284 0.0366764 -0.15439427 -0.08990072 0.13650948 -0.13380261
0.02653346 -0.19549972 0.14539696 -0.09986696 -0.00061894057 -0.105461195 -0.035540074 -0.13634315
0.18147896 -0.09320431 0.08131445 0.18030497 0.049618244 -0.15680791 0.08704935 -0.14726922
-0.01812906 0.14884423 -0.012351636 0.102298036 0.15721512 0.02188153 0.14711033 -0.019231178
-0.054327756 0.22218709 -0.14087205 0.041771557 0.0845257 -0.053332448 0.084056154 -0.058653373
-0.083716705 0.054546334 -0.20104542 -0.22343817 -0.27975905 -0.21095099 -0.108126305 -0.11387548
-0.18224844 0.07502172 -0.040325884 -0.12500386 -0.17833774 -0.18991055 0.08539809 0.19390012
0.07280643 -0.19519305 0.110030666 -0.05212052 -0.09627936 -0.07315099 -0.18379627 0.087484196
-0.064029574 -0.001054734 0.081803635 0.03650944 0.061545983 -0.046616197 -0.11900785 0.0067169964
-0.057163715 0.0067773312 -0.19711511 -0.13693908 0.108119145 -0.18631025 -0.14290226 0.2460691
0.24187414 0.13860035 0.1626269 0.09545819 0.12004164 0.006016319 -0.059510387 0.13527286
-0.041666713 0.15003076 -0.040447846 0.1614575 0.16389498 -0.031132938 -0.024829494 0.15336843
-0.017554343 0.22225294 0.035070017 -0.12866887 -0.023081535 -0.038738973 0.17247114 0.09165891
0.13108851 -0.073133424 0.09211744 -0.17031692 0.03926368 0.18733825 0.05921589 -0.093854144
-0.12199457 0.19067158 -0.1783262 -0.03650324 0.09897734 0.060817823 -0.16920614 -0.17176755
-0.035220623 -0.17996366 -0.030878857 -0.13786359 0.11630525 0.0693921 -0.025152445 0.08962692
0.061795875 0.16814631 0.09593429 0.21028458 -0.13149701 0.14815456 0.10312878 -0.05894689
-0.04355521 0.20756373 0.013572472 -0.059018787 -0.17437847 -0.10599396 0.111740395 0.09789143
0.01411457 -0.06083164 -0.017987225 -0.08106443 -0.124664694 -0.09407917 -0.23399454 -0.11949908
-0.28158548 -0.2399659

conv1.bias f4 [10]
00000000: 8193 8ebc bc36 26be bebc a5bd bd12 4fbe
00000010: d8a7 f1bb 9d3a 493f da4b 10be b243 1cbf
00000020: 10e8 09be b2af 763e
-0.01740432 -0.16231817 -0.0809264 -0.20221992 -0.007374745 0.7860506 -0.14091435 -0.61040795
-0.13467431 0.2409046

conv2.weight f4 [20, 10, 5, 5]
00000000: 61b0 373c 4580 533c c013 4e3d 2c2e 533d
00000010: 3b35 01bc 1510 423d df75 673d a21e 88bc
00000020: 5109 10bd 99d9 61bd 022f 3abd ab39 4dbd
00000030: 0939 6fbd 0ac7 ee3b c843 0dbd 02a7 563d
00000040: 55a9 bbbc 28e6 353d a91e b13c 138d 5a3d
00000050: 1a7f 2cbd 28b5 acbb 8dad ae3c adbf 0ebd
00000060: 37d8 333d db9e 633c 096c 413d 9dc8 8f3c
00000070: cf21 a1bc 2efc 2fbb e84c 6fbd 5988 d2bc
00000080: f44a 5b3d 41c1 273d fb8b 08bd 2c2a 71bb
00000090: 0fa5 4dbd cc9d debc e28c ca3c c8e7 b33c
000000a0: ac99 7cbd e3ff 23bb 0011 e1bc 2a30 80bd
000000b0: ed0b 833c f7b8 e3bc b56e 0a3d a9af a3bc
000000c0: 7950 4cbd 8986 6abd 5550 13bd ed13 42bd
000000d0: f481 4ebd 52da 3dbd d657 793c 3ed4 e73c
000000e0: 8d4e 15bb 3cb7 5d3d 96d3 a3bc 54fa 10bc
000000f0: ffc4 f13c ca52 32bd 3785 20bd 7682 3d3c
00000100: 3354 99bc 52d6 76bd 2b2e 65bb c5f0 903c
00000110: 5c26 6abd b659 88bb 13f6 853d 0474 64bd
00000120: 496b 57bd 61b6 073d 97b3 813d 449f 173c
00000130: 23e8 483d 4501 5d3c 1e6d 0cbc 32bc ecbc
00000140: 5f86 0c3c 58e4 2bbc bfcf 0abd 2327 cd3b
00000150: 8bc4 103c 11a8 723b c961 203d b14a 813d
00000160: f4f1 5abd bf9f c43c 88a9 173d dd5b 2f3c
00000170: 342d 31bd 0035 9a3c 8f8b 36bd e570 d13c
00000180: c2d0 843b cdaa 71bd 676a 51bd 3db6 a1bc
00000190: 4795 543c bd30 77bd 1146 8dba 6145 593d
000001a0: 1d75 18bd 46d1 c9bc 0789 82bb ceaa 823c
000001b0: 77b1 423d 1460 383d a4de 53bd 2319 80bd
000001c0: 2626 be3b 71d9 4dbc 78fd 893b 9fd1 dbbc
000001d0: 1092 dabc 3909 7d3d 9bbb ebbc 82f1 3c3d
000001e0: bc39 fa3b 557b c13c fc4a 36bd 442d ebbc
000001f0: b6bd d3bc b150 b33c 7c25 f2bc 5921 82bd
00000200: 44bf 2abc 9cd8 433c ba87 3d3c 7211 b03c
00000210: 2e05 403d cf4d 00bc 3d61 be3c 8490 82bd
00000220: 521d f4bc e3e9 04bd c201 05bd 0641 59bd
00000230: 054a 3cbd 22a3 c5bc 306a 953c 8a2c 5c3c
00000240: f63a 7ebd dcb1 0bbd 9d6b 5cbd 3269 dfbb
00000250: c129 63bd 6018 243d dc62 4ebd 98f0 34bc
00000260: 68df 7c3c 9008 7abb 4043 243c e81d 563d
00000270: 40ce 5a3b a0ff c13b 8446 30bc 389b 5cbd
00000280: c8a8 42bd 0cc5 493d b603 19bd dc54 7abd
00000290: d82a 043c 8ecb 4c3d 9e91 d9bc ec38 20bd
000002a0: e487 e13c c82f 6d3d 2047 173b b47c 03bc
000002b0: d5b5 57bd 0684 223d 5d03 7cbd c3dc 2f3d
000002c0: 3532 d5bc a82e 0f3d 1c8f 773d 4ae5 ccbb
000002d0: f056 913d 33f3 ad3c ef90 4f3d 083b e63c
000002e0: 9196 923d 43eb 1dbd a56c 7b3c 19e6 543d
000002f0: 5222 be3b ad90 23bd 293c 1b3b 2453 e83c
00000300: 8e11 c73c 2ffc 5c3d 452d f53c 8ec8 ecba
00000310: c225 963d 9b39 29bd 3aa0 353c 97d7 19bd
00000320: 34f7 52bc a0b2 ed3c 3c08 34bd dcce 6d3d
00000330: 84ca 103d 1808 7c3d 4a14 a3bc 964d 03bd
00000340: d0a2 513c ae6c 383d de06 b8bc 00a1 debc
00000350: 5631 103d 3ecd 09bd b028 843b 8866 28bc
00000360: c0fb 9e3b c076 7d3c 509b 453c 1e6b 24bd
00000370: cae1 603d a403 e3bc 58d1 313c 07b5 30bd
00000380: 5c40 55bc 5bcb 85bc 55f5 3c3d e5d6 febc
00000390: c5fa a03b baf6 7a3d 8b15 503d d246 753b
000003a0: 6124 5f3c a539 63bd 1128 1e3d 4c98 4bbd
000003b0: e420 63bd 0b2c 2b3d fde4 963c 802b 3bbd
000003c0: 5306 17bd 7f9c 4dbd f469 41bd 2ea3 15bd
000003d0: 1489 3a3c 44d9 783d ca04 763d d9d5 123c
000003e0: d5f9 55bc 381a 2dbd 78da 583d 01ac 0a3d
000003f0: 54c4 60bd cfee a83b 157e 723d 9a21 543d
0.011211486 0.012909 0.050311804 0.051557705 -0.007886226 0.04737862 0.056508895 -0.01661617
-0.035165135 -0.055139158 -0.045454986 -0.050103825 -0.058404002 0.007286911 -0.03448847 0.052405365
-0.022907892 0.044408947 0.021621065 0.053357195 -0.0421134 -0.005270619 0.02132299 -0.034850765
0.04390737 0.013892855 0.04722217 0.017551715 -0.019669442 -0.0026853192 -0.058422953 -0.025699781
0.053538278 0.040955786 -0.03333662 -0.0036798818 -0.05020624 -0.027174853 0.024725381 0.021961108
-0.06166999 -0.0025024347 -0.027473927 -0.062591866 0.015996898 -0.027798159 0.033796985 -0.019981222
-0.049881432 -0.05725721 -0.035965282 -0.047382284 -0.0504169 -0.046350785 0.015218696 0.028299447
-0.0022782416 0.054129824 -0.019998353 -0.008848745 0.02951288 -0.043535985 -0.039189544 0.011566749
-0.018716907 -0.060262986 -0.0034970145 0.017692933 -0.05716549 -0.004161085 0.065410756 -0.055774704
-0.05259255 0.033132914 0.06333082 0.0092542805 0.049049508 0.013489072 -0.008570937 -0.028898332
0.008576958 -0.010491453 -0.03388953 0.006260769 0.008835922 0.0037026445 0.039155755 0.063130744
-0.0534534 0.024001954 0.037026912 0.010703054 -0.043256 0.0188241 -0.044566687 0.025566528
0.004053206 -0.05900078 -0.051126864 -0.019740218 0.012975044 -0.060349215 -0.0010778328 0.05304468
-0.037221063 -0.024635922 -0.00398362 0.015950587 0.047532525 0.045013502 -0.051726 -0.062547944
0.0058028875 -0.012564049 0.004211124 -0.026833354 -0.026680976 0.061776374 -0.02877598 0.046128757
0.007636277 0.02361838 -0.044505104 -0.028708108 -0.025847297 0.021889063 -0.02955889 -0.06354017
-0.010421578 0.011953499 0.011568004 0.021492694 0.04687994 -0.007831051 0.023239726 -0.063752204
-0.029799137 -0.032449614 -0.03247238 -0.053040527 -0.045969028 -0.02412564 0.01823911 0.013438353
-0.06206795 -0.034105167 -0.053813566 -0.00681796 -0.05545974 0.04006231 -0.05038725 -0.01104369
0.015434124 -0.0038152076 0.010025799 0.052274615 0.0033387095 0.0059203655 -0.010759 -0.053858966
-0.047524244 0.049260184 -0.037357055 -0.061116084 0.008066855 0.049998812 -0.026558693 -0.039116785
0.027530618 0.057906896 0.0023083165 -0.008025337 -0.052663643 0.03967669 -0.061526645 0.042935144
-0.026024917 0.034956604 0.060439214 -0.0062529193 0.0709666 0.02123413 0.05067533 0.02810432
0.071576245 -0.03855444 0.015345727 0.05197725 0.005802431 -0.039932895 0.0023686981 0.028359957
0.024300363 0.05395144 0.029928813 -0.0018065141 0.073314205 -0.041314702 0.011085564 -0.037559118
-0.012876321 0.02901584 -0.043953165 0.058058605 0.035349384 0.061531156 -0.019907136 -0.032056414
0.012795165 0.04502552 -0.022464212 -0.02717638 0.0352033 -0.033643 0.0040331706 -0.010278352
0.0048517883 0.015470207 0.012060955 -0.040141217 0.05490283 -0.027711697 0.010853134 -0.04314139
-0.013015833 -0.016332319 0.046132404 -0.03110833 0.0049127066 0.061270453 0.050801795 0.0037426245
0.013619513 -0.055474896 0.03861243 -0.04970579 -0.05545129 0.04179005 0.018419737 -0.04569578
-0.036871266 -0.050198074 -0.047220185 -0.036532573 0.011385221 0.060754076 0.06006316 0.008962118
-0.013060053 -0.042261332 0.052942723 0.033855442 -0.054874733 0.0051554213 0.059202272 0.051789857

conv2.bias f4 [20]
00000000: 2719 26bd 1f37 693d 2913 01bd 9adb 25bd
00000010: de3e 19be db02 033c 4f9f 85bd 4e35 1e3e
00000020: 8170 763e 9948 a13d 44af 9abd c661 c9bc
00000030: c6ac 603c d6b8 193d ed13 42bd b8ba b73d
00000040: 495a 0abd 4a9a 0d3e 5721 f23d 1bd5 a33d
-0.04055133 0.056937333 -0.031512413 -0.04049263 -0.14965388 0.007996286 -0.06524526 0.15450022
0.24066354 0.07875175 -0.075529605 -0.024582755 0.013713067 0.03752979 -0.047382284 0.08971161
-0.03377751 0.13828388 0.11822765 0.07999631

conv3.weight f4 [30, 20, 5, 5]
00000000: 4175 cebc 9e7e 493c 0541 65bc 9fc6 9fbc
00000010: 7ca0 3a3d e0ab e4bc e531 a0bc cad1 1ebd
00000020: 7f55 bdbc 7b68 123d 6b53 a1bc 3a13 9dbc
00000030: 2951 4a3c 0fd4 17bc cd1d fabb d6b4 293d
00000040: bb14 2dbd c056 dbbb de25 47bc 6a7e c33b
00000050: 919b 2b3d b289 ecbb 9e63 bb3c eff4 30bd
00000060: f1d0 2f3c f3b9 853c a709 c13c 76f6 3cbd
00000070: c39b c1bc f849 54bd f2cc 073d f931 063d
00000080: 6d53 373c 3bba 3abc 39e6 7ebb d2b8 633c
00000090: 407b f53c 0305 b73a 2df4 063d ace5 1b3c
000000a0: 49e6 1cbc 94b7 e4bc 975e 933c 1dc1 8f3c
000000b0: d8ad 58bc 5437 00bc 81aa 933c 9304 e5bc
000000c0: 4fe2 b6bc 227b 46bd df9a c7bc e2db 1ebd
000000d0: 3ebc a1bc 662c f93c 82c7 9c3c e2fd eb3c
000000e0: 06cd dbbc 8a5c f83c a69a 2ebc a85e 263c
000000f0: ccb1 20bd 740e eb3b 3c5b 4f3c 96fb 0b3d
00000100: 2075 643c 40ba 243c 089b 04bd 12c1 9cbc
00000110: 3814 bc3b 6e31 db3c 3f81 03bd b89a 183d
00000120: 7d09 023d a45c 123d 9df9 b3bc b76c cabc
00000130: 1166 c53c 3aa0 68bc d088 ecbc 0b51 573c
00000140: 5a23 2a3d 4529 273d 0108 173d 6038 ab3a
00000150: dbad 78bc 7425 31bc 8cab dd3c f813 a3bc
00000160: 7ac0 003d 983a 1bbd ffb2 063c 7d07 97bc
00000170: 992c 9cbb d58c d13c c776 dbbc ca38 32bd
00000180: 2080 ffbc 38f9 02bd c413 1cba 4b37 febc
00000190: 6ba6 08bc 3607 2ebc 06a4 d53c 1c85 cabb
000001a0: 3d06 563d 6456 ffbc 45af 153c 087d b43c
000001b0: 5b5b 2f3d e3bb c73b 7ea6 bdbc cd7c 45bd
000001c0: 6461 7cbc 284d cb3c d11d 1abd f85b 513c
000001d0: 014d 25bc d985 48bd c4b7 733c 2ee2 aebb
000001e0: a350 32bd 0573 f63b 95ef 9a3c e640 253d
000001f0: cdb5 35bc d1f7 0b3c ed84 cf3b f948 1bbd
00000200: 6648 46bc 83f0 273c d8f7 52bc 3787 1bbb
00000210: 372c 2bbd e677 353d 9215 04bc 57d7 0abd
00000220: e981 f23c d47f 04bb fd8b 2fbd b8c2 21bc
00000230: 61f6 883c ef07 ba3c 6fba a4bc a2ba 1dbc
00000240: cd39 a5bc 5368 d4bb 6a27 f23c 0b2d 19bd
00000250: 8b52 4dbc b6cf 1fbd 75aa 91b9 8063 92bc
00000260: f5f1 1bbd d1f1 2f3d b303 f13a 41f8 403d
00000270: da3e 2e3d 3fed b93c 407d 58bc 0bd0 11bd
00000280: 7759 bfbc b76d 3abc 3cc6 2b3b be98 2abd
00000290: 5920 1e3d 7b8d 00bd 0818 4f3b e30e b43c
000002a0: 2e88 113d 23b1 163c d898 6e3b f31a 2dbd
000002b0: 8298 2ebd 59a6 0ebc cc2c 063d 05e3 453d
000002c0: 3239 75bc d674 25bd fcca 153c 1388 28bd
000002d0: 7e96 39ba 9956 b1bb edc1 e13c 4a88 c03c
000002e0: 3814 933c b7d5 1c3d 8335 2a3d 407c 67bc
000002f0: 6760 363d a041 3fbc 968e 4a3d 1106 323d
00000300: d337 303d 742e f73c 89bc 543c c173 1e3b
00000310: d388 f0bb 2c03 e83a c0cf a9bc 1ffb 073d
00000320: a893 01ba 3d7b 7cbc 1c7b 5539 41ee cfbc
00000330: 190d d3bb afcc 1f3d 28c6 9abc e32d 10bd
00000340: 9bda 273a b1fd d2bc c4ad 4c3c 3e41 b5bb
00000350: fb36 80bc d886 79bc 124a 303d f1e7 753c
00000360: 3440 1a3c 052c 0a3d 0400 5a3d 8cf6 89bb
00000370: ba06 28bd 2198 d0bc fc7e b4bc 7b30 e8bc
00000380: 3860 153d 56fc df3c 33a1 513d d9ec 33ba
00000390: b33a d4bc b0a0 a1bc 932d ecbc 0fbc 64bc
000003a0: a825 d13c 12e5 293c 0afc a43b b120 80bc
000003b0: b4ce cb3c 47ed 433d 31ee 92ba 8ec2 f33c
000003c0: 6684 a1bc bab0 0ebd 72b0 623c ce1d dabc
000003d0: f32d 15bd befe ac3c 8396 053d 990b fc3c
000003e0: b5d2 a13c b66f 2fbd 7cbc 78bc 4268 8e3c
000003f0: 3ae8 f3bb 2a99 873c 79cc 3c3b dbbe c5bc
-0.025202395 0.012298254 -0.013992553 -0.01950389 0.045563206 -0.027913988 -0.019555042 -0.03877429
-0.023112057 0.03574417 -0.019693097 -0.019174207 0.012348452 -0.009266867 -0.007632947 0.041432224
-0.0422561 -0.006693691 -0.012155024 0.0059659975 0.041896407 -0.007218563 0.02287465 -0.043202337
0.010730968 0.016324019 0.023564173 -0.04613348 -0.023633843 -0.051828355 0.033154435 0.0327625
0.011189324 -0.01139694 -0.0038894548 0.013899045 0.029965997 0.0013963286 0.032947708 0.009515207
-0.009576389 -0.027919568 0.01798944 0.017548138 -0.013225041 -0.007825691 0.018025639 -0.027956283
-0.02232471 -0.048457272 -0.02436584 -0.038783915 -0.019743081 0.030416679 0.019138101 0.028807584
-0.026831161 0.030317564 -0.010656988 0.010154404 -0.03923206 0.007173354 0.012656029 0.034175478
0.01394394 0.010054171 -0.03237441 -0.019135032 0.005739715 0.026756968 -0.03210568 0.037256926
0.03174733 0.03573288 -0.02196961 -0.024710042 0.02409652 -0.014198357 -0.028873831 0.013141881
0.04153762 0.040810842 0.036872867 0.0013063066 -0.015178169 -0.010812152 0.027059339 -0.019906983
0.03143356 -0.037897676 0.008221387 -0.018436188 -0.0047660586 0.02557985 -0.026790036 -0.04351119
-0.031189024 -0.031975955 -0.0005953873 -0.031032225 -0.008340458 -0.010621836 0.026079189 -0.0061804187
0.052252043 -0.031169124 0.009136026 0.022032276 0.042811733 0.006095396 -0.023150679 -0.048214722
-0.015404079 0.024817064 -0.03762609 0.012778275 -0.01008916 -0.048955772 0.014875356 -0.0053370213
-0.043533932 0.0075210356 0.01891307 0.040345095 -0.011090708 0.008542971 0.0063329847 -0.03791139
-0.012102222 0.010250214 -0.012876473 -0.0023731717 -0.041790213 0.044303797 -0.008061783 -0.03389677
0.029602962 -0.0020217793 -0.042858113 -0.009873085 0.016719045 0.022708861 -0.02010843 -0.009627016
-0.020169163 -0.006482163 0.02955981 -0.037396472 -0.012531887 -0.039016448 -0.00027783556 -0.01786971
-0.038072545 0.042955223 0.0018387943 0.047111753 0.04254041 0.022696136 -0.013213456 -0.035598796
-0.02335809 -0.011378697 0.0026210686 -0.041649573 0.038605068 -0.031384926 0.0031600017 0.021979755
0.03553026 0.009197506 0.003640702 -0.04226203 -0.04262591 -0.008706653 0.032757565 0.048312206
-0.01496725 -0.040394627 0.0091426335 -0.041145395 -0.0007079615 -0.0054119346 0.027558291 0.023502488
0.017953977 0.03828975 0.04155494 -0.014128745 0.04452553 -0.011673361 0.049452387 0.043462817
0.043021988 0.030173518 0.012984403 0.0024177881 -0.0073405295 0.0017701141 -0.020728946 0.033198472
-0.0004942962 -0.015410242 0.00020359125 -0.025382163 -0.0064407703 0.03901356 -0.018893316 -0.03520001
0.0006403119 -0.025755735 0.012492601 -0.005531459 -0.015651217 -0.015229903 0.04303939 0.015008912
0.009414721 0.033733387 0.05322267 -0.004210299 -0.04102204 -0.025463166 -0.022033207 -0.02834343
0.036468714 0.027342003 0.051179122 -0.0006863601 -0.025906896 -0.019729942 -0.028830325 -0.013960852
0.025530651 0.010369556 0.005034928 -0.015640588 0.024878837 0.047833707 -0.0011209903 0.029755857
-0.019716453 -0.03483651 0.013836013 -0.02662554 -0.036420774 0.021117564 0.032614242 0.030767249
0.019753793 -0.042831145 -0.015181657 0.017383698 -0.007443455 0.016552527 0.0028808399 -0.024138859

conv3.bias f4 [30]
00000000: 468c 463d 570e 8c39 94b1 4f3d f965 dfbc
00000010: a7b1 2abc 93e1 4cbc 8809 9c3c 98b5 0bbd
00000020: e55b a93c 0c74 cd3d 8a61 35bd 6a10 ce3c
00000030: a794 95bc e46a 21bd eb89 063e 29bc 01bd
00000040: fce6 ee3c 0298 1bbd dcee 063c f536 2d3d
00000050: ce40 e0ba 90b0 1ebd 266d 3c3b 4852 af3d
00000060: 9756 e1bb e103 133c a7b0 303d 49ce db3a
00000070: 9be8 d0bb fe74 93bb
0.04847362 0.00026713565 0.05070646 -0.027270304 -0.010418332 -0.012504953 0.019047514 -0.03410873
0.020673702 0.100319 -0.044282474 0.025154311 -0.01825936 -0.03940858 0.13138549 -0.031673584
0.029162876 -0.037986763 0.008235659 0.04228874 -0.0017109157 -0.038742602 0.002875158 0.08560616
-0.0068767774 0.008973093 0.04313722 0.0016769852 -0.006375385 -0.0045000305

fc.weight f4 [1, 480]
00000000: 72f6 11bd a108 53bd e1f9 4cbc 50a0 6f3d
00000010: dea5 2ebc 7ac0 6d3d 8b41 24bd 70a9 d1bc
00000020: 4518 17bd 9389 73bd 3be2 82bd d621 7cbc
00000030: 4343 b23c d848 393d 03c1 94bc b31d 95bc
00000040: 5d9b 973d 1e95 8f3c fb4c 2dbc 31c1 7f3b
00000050: 4dcb da3c 5c69 023d 76af 713d 291d 4dbc
00000060: 9a2b 843d 5fdf 91bc 50a1 9a3d fb35 c0bc
00000070: 6c89 b23c 0e7a c53d e675 2b3d 2d7c 8a3d
00000080: 96a8 b4bc a4fe b1bc 4bfe 8d3b a13d 9b3c
00000090: ea63 033d c1d0 e5bc f4de 273d 076b bd3c
000000a0: aa2a adbc c591 4d3c 4648 19bd 7cbc 93bb
000000b0: 1f8c 02bd c07a aebd 9420 8abd 659b 0dbc
000000c0: e865 e5bb fe23 2f3d 030b 9f3b a1de f2bc
000000d0: ace7 47bd fefe 7e3c 1313 9db9 7999 73bc
000000e0: c38b 3c3d d9c7 babc 9158 2a3d 7519 f7bb
000000f0: 85f3 6a3c 9635 9dbc f9ae b2bc d6ef edbb
00000100: f08d 92bc af51 3fbc 3e5a adbb da32 013d
00000110: 29e5 cebc 4fd8 e83c e0c8 5fbc 281e 3fbb
00000120: 6d45 3b3d 0da3 113d 4392 1c3c a006 8b3d
00000130: 3320 dcbc 4981 e43b aea5 83bd 1e52 26bd
00000140: 38a4 5d3d c638 92bc 1f4f c6bd c62d 9bbd
00000150: ed56 5d3d b54e a63d 0520 023d 07fc a0bc
00000160: 0ce6 5d3d 6716 8b3d 60cb 28bd 200b fbbc
00000170: b34f 1b3e 3922 423e f801 023e ef59 123d
00000180: 51ce 753c c2c6 a13c 9412 b63c 3919 a83d
00000190: 9ca1 50bd d4f8 aebc 8b78 4cbd 0047 6e3d
000001a0: c165 4cbd 32af 38bd 27f0 d73b 376b 59bc
000001b0: f120 c53b 620c 0cbd 5410 5c3d 8131 213d
000001c0: 8a8a 8d3b 90d4 043d 2e12 47bd 8af6 9bbc
000001d0: 2de0 a23d 3519 5b3c d996 6a3c 90e2 0c3c
000001e0: aeb3 143c bb00 54bd 8981 72bd 5106 0bbd
000001f0: 2e1b b33d d77e 0d3e e365 ba3d e069 513d
00000200: ae64 a7bc 2a2a e83c 02eb 74bb fc0d 3e3d
00000210: 1d57 1abd c8ec 0dbd e585 203d ae4d dd3c
00000220: 0875 11bc 5bc4 093d 124f be3c f4f4 26bd
00000230: a4bf 09bd 0efe b83c ffa2 9fbc 565f 46bc
00000240: f0a7 35bd 66f9 2abd b5f3 12bc 871f 7d3d
00000250: e790 cebc c7e0 86bd 90fa 46bb 465d 303c
00000260: 7529 64bd cbd5 6cbd c3e5 cfbd f5f9 0d3d
00000270: c3f2 c2bd 5ff5 3ebe 1459 50be d668 c1bd
00000280: 00b4 2f3d a4e5 db3c 8053 dfbb b4f9 10bc
00000290: f28e 193d d481 23bc 00ff ba3a 4ce3 2abd
000002a0: 4448 f53c 14b3 1a3c 4974 38bd 0efa f9bc
000002b0: 2e8d 12bd 65d5 16bd f4bc 9b3c 50f0 f13c
000002c0: 007c 57ba 7c1e 623c 3f9f efbc 2fa5 2dbd
000002d0: 10ac 8a3c d40e 00bd 8a12 2ebd 40d4 ca3b
000002e0: 640b c3bc ecac 1bbd 30c8 113b 9f9c eebc
000002f0: 18d0 0bbc 1521 bcbc f97b 19bd 00b4 923c
00000300: cf3d cb3c 4c19 bd3c 00d8 32bc c271 253d
00000310: b3ce 013c bc2a 1e3d d823 2e3d 230e 05bd
00000320: 8535 1cbd a865 3abd 0d0b 683c a0ae d73c
00000330: 98c3 2d3d ed0f b73c fddb 4b3c 7ae4 fe3c
00000340: 5e62 433a 13cc b5bc c45c 123d 9430 3abd
00000350: b843 aebc b904 133d 865e f8bc b027 843c
00000360: 3f0e 973c fd2b fabc 5f47 0f3c fda5 3abc
00000370: b22b ccbc 22a8 203d 825f 123c 1a67 1a3d
00000380: 1f4d dbbd ef16 a2bd a0c1 a73a e472 703d
00000390: f318 003c 7122 d7bd 2c34 2dbd db34 0f3e
000003a0: 5ae2 d5bc 2fa1 92bd 92cc 07bd 9e59 a33d
000003b0: a247 47be 70a3 96be 67a0 43be b196 d7bc
000003c0: a52a dfbc eb57 2abc fa7e 0dbd f9e8 fcbc
000003d0: c3c4 c4bc 1acb a63c 24ed 97bc 5638 133d
000003e0: 8e3a 2ebd 7f37 debc 6ab0 0dbd ce5e 0b3d
000003f0: 269a 183d 0e8a f73c f04d 413c bb9b 103d
-0.03563542 -0.0515219 -0.012510748 0.058502495 -0.010659663 0.058044888 -0.04010157 -0.02559349
-0.03688838 -0.059457373 -0.06390806 -0.0153889265 0.021760589 0.045235485 -0.018158441 -0.018202638
0.0740268 0.01752716 -0.010577436 0.0039025063 0.02670827 0.03183876 0.059005223 -0.012519159
0.06453629 -0.017806707 0.07550299 -0.02346324 0.021794043 0.09642421 0.041860484 0.06761966
-0.022053044 -0.021727867 0.0043332926 0.018950285 0.032077707 -0.028053643 0.04098411 0.023122324
-0.021138508 0.012546961 -0.03742244 -0.004508553 -0.03187191 -0.085195065 -0.06744495 -0.008643006
-0.0070006736 0.042758934 0.0048536076 -0.029647173 -0.048804924 0.015563725 -0.00029959585 -0.014868134
0.046031725 -0.022800373 0.04158837 -0.0075408765 0.014340286 -0.01919059 -0.02181195 -0.0072612567
-0.017889947 -0.01167719 -0.0052902987 0.031542636 -0.025255756 0.028423456 -0.013658732 -0.0029162262
0.045720506 0.035555888 0.009556356 0.06788373 -0.026870823 0.00697342 -0.06428085 -0.040605657
0.05411169 -0.017849337 -0.0968306 -0.0757709 0.054037977 0.08120481 0.031768817 -0.019651426
0.054174468 0.06791382 -0.04120958 -0.030644953 0.15167122 0.18958367 0.12696064 0.0357303
0.015002803 0.019748095 0.022225656 0.08207936 -0.050935373 -0.021358885 -0.049919646 0.05817318
-0.049901728 -0.045088954 0.0065899077 -0.013270191 0.00601589 -0.034191497 0.05372651 0.03935385
0.0043194937 0.032429278 -0.048601322 -0.019038457 0.079529144 0.013372709 0.014318191 0.008598939
0.009076042 -0.05175851 -0.059205566 -0.03394157 0.087454185 0.13817917 0.091014646 0.05112636
-0.02043375 0.028340418 -0.003737152 0.046400055 -0.037680734 -0.03464964 0.03919019 0.02701458
-0.008878 0.033634525 0.023231063 -0.04076095 -0.03363003 0.02258208 -0.019486902 -0.012107691
-0.04434961 -0.04174175 -0.008969237 0.061797645 -0.02521558 -0.065858416 -0.003036175 0.010764426
-0.0557036 -0.057821076 -0.101512454 0.034662206 -0.095189594 -0.18648289 -0.2034648 -0.09443824
0.04289627 0.0268429 -0.006815374 -0.008848596 0.03748984 -0.009979684 0.001426667 -0.041720673
0.029941685 0.00944211 -0.045032773 -0.030514743 -0.03577917 -0.036824603 0.019010998 0.029533535
-0.00082200766 0.013801213 -0.02925074 -0.04239386 0.016927749 -0.03126414 -0.04249815 0.006189853
-0.023809142 -0.038006708 0.0022244565 -0.029127417 -0.0085335 -0.022964993 -0.037471745 0.017908096
0.024809746 0.023083352 -0.010915756 0.04039169 0.007922816 0.038614973 0.042514652 -0.032484185
-0.038136978 -0.045507103 0.014162791 0.026328385 0.04242286 0.022346461 0.012442586 0.031114805
0.00074533175 -0.022192037 0.035733 -0.045456484 -0.021272525 0.035893176 -0.03031851 0.016132206
0.01843941 -0.030538553 0.008745044 -0.011392114 -0.02492318 0.039222844 0.008933904 0.03769598
-0.10708069 -0.079145305 0.0012798794 0.05870332 0.007818448 -0.10504616 -0.042286083 0.13985007
-0.02610891 -0.071596496 -0.033154078 0.079760775 -0.1946092 -0.29421568 -0.19104157 -0.026316972
-0.027242014 -0.010396938 -0.034544922 -0.030872809 -0.024019605 0.020360518 -0.018545695 0.035942398
-0.04253631 -0.027126072 -0.03459207 0.03402596 0.037256382 0.030217197 0.011798367 0.035304766
